…
":{"base_uri":"https://localhost:8080/"},"executionInfo":{"elapsed":1223,"status":"ok","timestamp":1682924062527,"user":{"displayName":"286_Akshita Sah","userId":"11151069928446076996"},"user_tz":-330},"id":"3hLh9tHXDD0H","outputId":"88159ee7-72d4-4110-f416-7cf7a010bfa1"},"outputs":[{"output_type":"stream","name":"stdout","text":["Model: \"sequential_4\"\n","_________________________________________________________________\n"," Layer (type)                Output Shape              Param #   \n","=================================================================\n"," conv2d (Conv2D)             (None, 128, 128, 32)      896       \n","                                                                 \n"," batch_normalization (BatchN  (None, 128, 128, 32)     128       \n"," ormalization)                                                   \n","                                                                 \n"," max_pooling2d (MaxPooling2D  (None, 64, 64, 32)       0         \n"," )                                                               \n","                                                                 \n"," batch_normalization_1 (Batc  (None, 64, 64, 32)       128       \n"," hNormalization)                                                 \n","                                                                 \n"," conv2d_1 (Conv2D)           (None, 64, 64, 64)        18496     \n","                                                                 \n"," batch_normalization_2 (Batc  (None, 64, 64, 64)       256       \n"," hNormalization)                                                 \n","                                                                 \n"," max_pooling2d_1 (MaxPooling  (None, 32, 32, 64)       0         \n"," 2D)                                                             \n","                                                                 \n"," batch_normalization_3 (Batc  (None, 32, 32, 64)       256       \n"," hNormalization)                                                 \n","                                                                 \n"," conv2d_2 (Conv2D)           (None, 32, 32, 128)       73856     \n","                                                                 \n"," batch_normalization_4 (Batc  (None, 32, 32, 128)      512       \n"," hNormalization)                                                 \n","                                                                 \n"," max_pooling2d_2 (MaxPooling  (None, 16, 16, 128)      0         \n"," 2D)                                                             \n","                                                                 \n"," batch_normalization_5 (Batc  (None, 16, 16, 128)      512       \n"," hNormalization)                                                 \n","                                                                 \n"," flatten (Flatten)           (None, 32768)             0         \n","                                                                 \n"," dense (Dense)               (None, 256)               8388864   \n","                                                                 \n"," batch_normalization_6 (Batc  (None, 256)              1024      \n"," hNormalization)                                                 \n","                                                                 \n"," dropout (Dropout)           (None, 256)               0         \n","                                                                 \n"," dense_1 (Dense)             (None, 2)                 514       \n","                                                                 \n","=================================================================\n","Total params: 8,485,442\n","Trainable params: 8,484,034\n","Non-trainable params: 1,408\n","_________________________________________________________________\n"]}],"source":["model.summary()"]},{"cell_type":"code","execution_count":null,"metadata":
…
